…
et-view+json":{"version_major":2,"version_minor":0,"model_id":"33c5e899a59c4f7b8b529c177fc062a1"}},"metadata":{}},{"output_type":"display_data","data":{"text/plain":"model.safetensors:   0%|          | 0.00/1.11G [00:00<?, ?B/s]","application/vnd.jupyter.widget-view+json":{"version_major":2,"version_minor":0,"model_id":"d637c6f6778740908e925fcc216d768f"}},"metadata":{}},{"execution_count":10,"output_type":"execute_result","data":{"text/plain":"VisionEncoderDecoderModel(\n  (encoder): ViTModel(\n    (embeddings): ViTEmbeddings(\n      (patch_embeddings): ViTPatchEmbeddings(\n        (projection): Conv2d(3, 768, kernel_size=(16, 16), stride=(16, 16))\n      )\n      (dropout): Dropout(p=0.0, inplace=False)\n    )\n    (encoder): ViTEncoder(\n      (layer): ModuleList(\n        (0-11): 12 x ViTLayer(\n          (attention): ViTAttention(\n            (attention): ViTSelfAttention(\n              (query): Linear(in_features=768, out_features=768, bias=False)\n              (key): Linear(in_features=768, out_features=768, bias=False)\n              (value): Linear(in_features=768, out_features=768, bias=False)\n              (dropout): Dropout(p=0.0, inplace=False)\n            )\n            (output): ViTSelfOutput(\n              (dense): Linear(in_features=768, out_features=768, bias=True)\n              (dropout): Dropout(p=0.0, inplace=False)\n            )\n          )\n          (intermediate): ViTIntermediate(\n            (dense): Linear(in_features=768, out_features=3072, bias=True)\n            (intermediate_act_fn): GELUActivation()\n          )\n          (output): ViTOutput(\n            (dense): Linear(in_features=3072, out_features=768, bias=True)\n            (dropout): Dropout(p=0.0, inplace=False)\n          )\n          (layernorm_before): LayerNorm((768,), eps=1e-12, elementwise_affine=True)\n          (layernorm_after): LayerNorm((768,), eps=1e-12, elementwise_affine=True)\n        )\n      )\n    )\n    (layernorm): LayerNorm((768,), eps=1e-12, elementwise_affine=True)\n    (pooler): ViTPooler(\n      (dense): Linear(in_features=768, out_features=768, bias=True)\n      (activation): Tanh()\n    )\n  )\n  (decoder): XLMRobertaForCausalLM(\n    (roberta): XLMRobertaModel(\n      (embeddings): XLMRobertaEmbeddings(\n        (word_embeddings): Embedding(250002, 768, padding_idx=1)\n        (position_embeddings): Embedding(514, 768, padding_idx=1)\n        (token_type_embeddings): Embedding(1, 768)\n        (LayerNorm): LayerNorm((768,), eps=1e-05, elementwise_affine=True)\n        (dropout): Dropout(p=0.1, inplace=False)\n      )\n      (encoder): XLMRobertaEncoder(\n        (layer): ModuleList(\n          (0-11): 12 x XLMRobertaLayer(\n            (attention): XLMRobertaAttention(\n              (self): XLMRobertaSelfAttention(\n                (query): Linear(in_features=768, out_features=768, bias=True)\n                (key): Linear(in_features=768, out_features=768, bias=True)\n                (value): Linear(in_features=768, out_features=768, bias=True)\n                (dropout): Dropout(p=0.1, inplace=False)\n              )\n              (output): XLMRobertaSelfOutput(\n                (dense): Linear(in_features=768, out_features=768, bias=True)\n                (LayerNorm): LayerNorm((768,), eps=1e-05, elementwise_affine=True)\n                (dropout): Dropout(p=0.1, inplace=False)\n              )\n            )\n            (crossattention): XLMRobertaAttention(\n              (self): XLMRobertaSelfAttention(\n                (query): Linear(in_features=768, out_features=768, bias=True)\n                (key): Linear(in_features=768, out_features=768, bias=True)\n                (value): Linear(in_features=768, out_features=768, bias=True)\n                (dropout): Dropout(p=0.1, inplace=False)\n              )\n              (output): XLMRobertaSelfOutput(\n                (dense): Linear(in_features=768, out_features=768, bias=True)\n                (LayerNorm): LayerNorm((768,), eps=1e-05, elementwise_affine=True)\n                (dropout): Dropout(p=0.1, inplace=False)\n              )\n            )\n            (intermediate): XLMRobertaIntermediate(\n              (dense): Linear(in_features=768, out_features=3072, bias=True)\n              (intermediate_act_fn): GELUActivation()\n            )\n            (output): XLMRobertaOutput(\n              (dense): Linear(in_features=3072, out_features=768, bias=True)\n              (LayerNorm): LayerNorm((768,), eps=1e-05, elementwise_affine=True)\n              (dropout): Dropout(p=0.1, inplace=False)\n            )\n          )\n        )\n      )\n    )\n    (lm_head): XLMRobertaLMHead(\n      (dense): Linear(in_features=768, out_features=768, bias=True)\n      (layer_norm): LayerNorm((768,), eps=1e-05, elementwise_affine=True)\n      (decoder): Linear(in_features=768, out_features=250002, bias=True)\n    )\n  )\n)"},"metadata":{}}]},{"cell_type":"code","source":"print(\"-----START TO CONFIG THE MODEL-----\")\nmodel.config.decoder_start_token_id = tokenizer.cls_token_id\nmodel.config.pad_token_id = tokenizer.pad_token_id\nmodel.config.vocab_size = model.config.decoder.vocab_size\n\n# set beam search parameters\nmodel.config.eos_token_id = tokeni
…
